integration_tests/chromedrivers/profile/optimization_guide_model_store/20/E6DC4029A1E4B4C1/E552DEA50A6A5C04/model.tflite (tflite, 64852 bytes, 5 tensors)

arith.constant f4 [1, 64]
-0.17121053 -0.19974853 0.28698522 0.071618885 -0.2866331 0.22129327 -0.22499278 -0.36521032
0.022691067 -0.18259817 -0.06832753 0.093778625 0.20962362 0.1838477 0.25594014 -0.21411058
0.22310878 0.2244164 0.12694727 -0.09312029 -0.27082434 0.35588774 0.2795578 -0.014425243
0.15495037 -0.09923214 -0.29647365 0.43956417 0.01711787 0.1994981 -0.026564958 -0.23261708
-0.0895864 0.04242879 -0.28350177 0.24989682 -0.0041974112 0.21786773 0.16059114 -0.13351834
0.074220605 0.24142708 0.19333766 -0.08661094 0.21044253 0.54424024 0.19166583 0.22240117
0.022658648 -0.27538282 -0.4010345 -0.07317638 0.1991514 0.09194876 0.089533284 0.07522431
0.17664994 -0.12489092 0.29334724 0.19798991 -0.058859278 -0.0417713 0.07253431 -0.02134058
00000000: d051 2fbe e18a 4cbe baef 923e ecac 923d
00000010: 93c1 92be b49a 623e 8264 66be d9fc babe
00000020: 9ee2 b93c 04fb 3abe 4eef 8bbd 020f c03d
00000030: 93a7 563e 9242 3c3e 960a 833e ce3f 5bbe
00000040: a176 643e 6acd 653e 77fe 013e dab5 bebd
00000050: 7da9 8abe eb36 b63e 3322 8f3e db57 6cbc
00000060: 4fab 1e3e 383a cbbd 65cb 97be 8e0e e13e
00000070: c63a 8c3c 3b49 4c3e c19e d9bc 2c33 6ebe
00000080: 1379 b7bd d0c9 2d3d 2527 91be f4e4 7f3e
00000090: 708a 89bb b818 5f3e 0172 243e 08b9 08be
000000a0: f900 983d a938 773e 4ffa 453e 1461 b1bd
000000b0: 3f7e 573e 5453 0b3f 0c44 443e 22bd 633e
000000c0: a19e b93c fafe 8cbe 6554 cdbe 7fdd 95bd
000000d0: 58ee 4b3e a24f bc3d 3a5d b73d 340f 9a3d
000000e0: b9e3 343e d0c6 ffbd 9c31 963e debd 4a3e
000000f0: 6d16 71bd 6218 2bbd de8c 943d 71d2 aebc

arith.constant1 f4 [64, 128]
0.12927864 0.04917612 0.014794496 -0.09378961 0.077771865 0.20854081 -0.042331316 0.1244567
-0.04497335 -0.11097511 0.08687264 -0.09822764 -0.17192273 -0.04966181 0.050124306 0.031044373
-0.17037581 0.14928055 0.19543974 -0.10493657 -0.16827215 -0.06030774 0.053740747 0.108582
-0.098548174 0.080392905 0.114401914 0.049490646 0.018178903 0.09905406 -0.030207483 -0.0047270968
0.18030244 -0.05147375 -0.14441396 -0.02582206 -0.079549514 -0.06234236 0.09500124 0.15235159
-0.108619876 -0.10021152 -0.1550782 -0.09482864 -0.108653195 0.116673365 0.13371608 0.12247915
-0.15674335 0.075815536 0.140598 0.045315735 -0.16656305 0.07033055 0.011456095 0.07819159
0.07689433 0.0259781 -0.030648943 -0.04057432 -0.11150063 0.037596237 -0.16642414 -0.1654238
-0.09402249 0.17435333 0.01809178 -0.13377522 -0.08148701 0.046541538 -0.108552694 0.16207916
0.023726499 -0.0632841 -0.04781371 0.09264703 0.054892458 0.16219741 0.07947657 0.14919445
0.13222505 -0.06084777 0.06882968 0.12296964 0.044878915 -0.017736053 0.059741773 -0.08480473
-0.07606186 -0.18234059 0.1538409 0.16535603 0.10123012 0.021473892 -0.020074124 -0.0029482853
-0.07976295 0.15235528 0.13591668 0.11294064 0.17103268 0.11825806 0.15461658 -0.09075478
0.16228464 0.0758432 0.10666439 0.032052506 0.054165523 -0.09546721 -0.043450195 -0.1355639
0.15583724 -0.06817069 -0.12495092 0.11787856 0.006712239 -0.15372957 0.030485794 0.1540706
0.15456215 -0.16581345 0.114336014 -0.107194915 -0.0066864495 0.06458438 0.10971794 -0.06109938
-0.027618973 0.123043776 -0.13776274 -0.10747758 0.17181219 -0.11360941 0.08518642 0.12131845
0.087463945 -0.13396941 -0.03753442 -0.10065835 0.05373973 0.14882109 -0.16612357 0.15114345
0.089045405 -0.16881205 0.19657846 -0.1300491 0.18771403 0.13225964 0.10754528 0.15959436
-0.097599715 0.19257092 0.13917641 0.11555327 -0.17727657 -0.06773438 0.05000252 0.16555984
0.049532916 0.047376644 0.0015766987 0.017272245 0.14992215 0.053149812 -0.15446383 0.09158856
-0.16771063 -0.07606939 -0.12647448 -0.08363198 -0.0026255911 -0.11974785 0.09547682 -0.20482676
0.130469 -0.06604315 -0.14432703 -0.011896805 0.14424424 0.19709097 0.12029765 0.009945257
-0.12440794 0.09283877 0.036192544 0.0051015336 -0.12499562 -0.094818056 -0.091602266 -0.04486616
-0.12422539 0.13097863 -0.09140495 -0.01812471 0.08589245 -0.18222749 -0.10452487 -0.26026508
-0.0898306 0.07077287 -0.10614485 0.14032339 0.08740397 -0.112380356 0.081736475 0.15712745
-0.114098534 0.08361528 0.10259456 0.065344915 0.066659965 0.12038604 -0.09102274 -0.042560715
-0.050403643 -0.0925594 -0.1619601 0.09946399 0.11785085 0.05201851 0.07245392 0.14768972
0.101435974 0.15865393 0.14909169 0.17052886 0.12073832 0.12778282 0.08893074 -0.009583679
0.18485843 -0.053758908 0.11709429 -0.19238588 -0.060604088 0.10222762 0.10242342 -0.033462096
-0.029253706 -0.06735664 -0.14855075 -0.18650043 0.11606317 0.04002507 0.042639956 0.014404953
0.032591913 -0.012663753 -0.07722792 -0.015570072 0.10070374 0.029987514 0.13536151 0.07516174
00000000: 9f61 043e e66c 493d 9d64 723c c414 c0bd
00000010: db46 9f3d b98b 553e 9a63 2dbd 28e3 fe3d
00000020: fa35 38bd eb46 e3bd 48ea b13d 932b c9bd
00000030: 830c 30be 2f6a 4bbd 254f 4d3d c550 fe3c
00000040: ff76 2ebe 00dd 183e 5b21 483e fce8 d6bd
00000050: 894f 2cbe 4005 77bd 421f 5c3d 3d60 de3d
00000060: a0d3 c9bd 09a5 a43d 8d4b ea3d b4b6 4a3d
00000070: eceb 943c dbdc ca3d af75 f7bc c3e5 9abb
00000080: 34a1 383e 24d6 52bd 41e1 13be c988 d3bc
00000090: dbea a2bd b45a 7fbd 0390 c23d 0e02 1c3e
000000a0: 1974 debd b33b cdbd d2cc 1ebe 8535 c2bd
000000b0: 9185 debd 72f2 ee3d deec 083e 59d6 fa3d
000000c0: 5481 20be 2d45 9b3d ecf8 0f3e fe9c 393d
000000d0: 818f 2abe 7709 903d 58b2 3b3c ea22 a03d
000000e0: c67a 9d3d 06d0 d43c 7e13 fbbc 4231 26bd
000000f0: 715a e4bd 83fe 193d 176b 2abe db64 29be
00000100: dd8e c0bd ae89 323e 3635 943c 5ffc 08be
00000110: a9e2 a6bd 57a2 3e3d e050 debd 14f8 253e
00000120: 135e c23c 189b 81bd 4fd8 43bd babd bd3d
00000130: ead6 603d 1417 263e 9dc4 a23d 6ec6 183e
00000140: 0166 073e 833b 79bd 93f6 8c3d 82d7 fb3d
00000150: f4d2 373d 334b 91bc cab3 743d 1aae adbd
00000160: 52c6 9bbd 7eb7 3abe 7888 1d3e 1753 293e
00000170: bd51 cf3d 04ea af3c 7d72 a4bc 0538 41bb
00000180: c25a a3bd 0603 1c3e be2d 0b3e 6c4d e73d
00000190: 3123 2f3e 4831 f23d cf53 1e3e a4dd b9bd
000001a0: f22d 263e ae53 9b3d dc72 da3d 7d49 033d
000001b0: abdc 5d3d 5084 c3bd d5f8 31bd 43d1 0abe
000001c0: cc93 1f3e 139d 8bbd 45e6 ffbd 516a f13d
000001d0: 57f2 db3b 496b 1dbe 58bd f93c afc4 1d3e
000001e0: 8a45 1e3e 00cb 29be 0029 ea3d 0289 dbbd
000001f0: 011a dbbb d144 843d cdb3 e03d 5843 7abd
00000200: 2f41 e2bc 60fe fb3d ad11 0dbe 351d dcbd
00000210: 89ef 2f3e 0dac e8bd 3876 ae3d cf75 f83d
00000220: 4c20 b33d 472f 09be b1bd 19bd f725 cebd
00000230: 311e 5c3d 8e64 183e 4c1c 2abe 59c5 1a3e
00000240: 705d b63d 11dd 2cbe dd4b 493e 972b 05be
00000250: 1b38 403e 126f 073e b340 dc3d b46c 233e
00000260: 5ce2 c7bd 5031 453e 4384 0e3e 31a7 ec3d
00000270: fd87 35be 53b8 8abd 71cf 4c3d 8588 293e
00000280: 07e3 4a3d 030e 423d 3ba9 ce3a 867e 8d3c
00000290: 3185 193e 9eb3 593d c42b 1ebe c892 bb3d
000002a0: 56bc 2bbe 45ca 9bbd 8782 01be 3e47 abbd
000002b0: 1c12 2cbb 5c3e f5bd 5a89 c33d 1bbe 51be
000002c0: aa99 053e a241 87bd 77ca 13be d1ea 42bc
000002d0: c3b4 133e 37d2 493e 9d5e f63d 6ef1 223c
000002e0: 97c9 febd 4122 be3d a23e 143d c42a a73b
000002f0: b4fd ffbd f82f c2bd f899 bbbd 94c5 37bd
00000300: e269 febd 431f 063e 8532 bbbd 467a 94bc
00000310: 61e8 af3d d899 3abe 2311 d6bd 7741 85be
00000320: 1bf9 b7bd 5ef1 903d 7962 d9bd efb0 0f3e
00000330: da00 b33d ac27 e6bd 7465 a73d 05e6 203e
00000340: 7eac e9bd 7d3e ab3d 191d d23d 8ed3 853d
00000350: 0585 883d f58c f63d 216a babd 2554 2ebd
00000360: 0d74 4ebd c88f bdbd ded8 25be c7b3 cb3d
00000370: c95b f13d 5c11 553d b962 943d f93b 173e
00000380: aabd cf3d 2d76 223e 7eab 183e 1e9f 2e3e
00000390: a745 f73d 80d9 023e 5221 b63d dd04 1dbc
000003a0: 874b 3d3e 4d32 5cbd 22cf ef3d ce00 45be
000003b0: fe3b 78bd b75c d13d 5fc3 d13d 8d0f 09bd
000003c0: 78a5 efbc 47f2 89bd b01d 18be f8f9 3ebe
000003d0: 87b2 ed3d 54f1 233d 3ca7 2e3d c102 6c3c
000003e0: 197f 053d a17b 4fbc ac29 9ebd 9e19 7fbc
000003f0: c33d ce3d 60a8 f53c 359c 0a3e 66ee 993d

arith.constant2 f4 [128, 12]
0.03374805 0.13873975 0.12683402 0.121303506 0.19498464 -0.06602824 -0.03355373 0.092684165
0.12936579 0.08882131 0.076170415 0.24114975 -0.069422856 0.1128238 -0.004676993 -0.18362406
-0.107529014 0.16329396 -0.06292783 0.14721613 0.17989632 0.1999688 -0.18612884 -0.09055528
0.048707727 -0.0036668726 0.019950708 -0.075669475 0.063326485 0.081030965 -0.11056721 0.1739643
-0.059719156 0.0153089035 0.1899204 -0.32998654 0.12231745 -0.21363501 -0.083492905 0.08319359
-0.08233066 0.08374888 0.15059315 0.07872648 0.15051305 -0.065265775 0.116006814 0.15746118
0.17574677 -0.09751359 -0.18335907 0.20581624 0.1253391 0.0753556 -0.08996079 -0.12858196
-0.028757613 -0.20091076 -0.16841678 0.021427972 0.13877931 0.03710378 -0.007908887 0.045074083
-0.04472081 -0.17463134 -0.058624253 -0.24658038 0.055876065 0.11548743 -0.053824667 0.12475286
0.05562274 -0.063420855 -0.15945086 -0.012916965 -0.13612428 -0.07647794 -0.06823983 -0.21421687
-0.13675638 -0.10105461 0.17014794 0.029786807 -0.1449916 -0.13363397 0.05999929 -0.092236206
0.057001803 0.060376454 0.08844944 0.1075656 -0.03129932 0.11534661 0.112620376 0.16955979
0.070190266 0.13966428 -0.27848724 0.1503368 -0.047359355 0.03942909 0.051176067 0.15379024
-0.1573182 0.18239793 0.106834106 0.11624056 0.082634054 0.12286511 0.18644881 -0.056872196
0.13613309 0.084978946 -0.05405281 0.07448598 0.1939669 0.1652783 0.013844481 -0.050361656
-0.055851255 0.11867033 0.007850819 -0.0941809 0.049775768 0.06534701 -0.055602543 0.067639425
-0.022605129 -0.013550289 -0.21905336 -0.092662334 0.051750835 -0.11137314 0.119298376 0.008619977
0.16107184 0.0038867698 -0.15801649 0.16997725 -0.19761622 0.14891778 0.19661754 0.21406962
0.053033933 -0.18665011 0.01845971 -0.111831665 0.07635031 0.035638914 0.006090237 0.086031444
-0.21034054 -0.02917699 0.051718436 -0.23403546 -0.06299036 0.040625002 -0.008348203 -0.14386205
-0.16776974 -0.15627505 0.14002568 0.14083354 -0.08363526 -0.072639935 -0.09770748 0.11265811
0.035220593 -0.12795238 0.073397644 0.14701942 -0.16218704 0.16538396 -0.21046554 -0.1702646
-0.09670941 -0.099243425 -0.094354585 0.108134255 0.14268208 0.08040301 -0.14260477 0.12837097
-0.087301776 -0.06828709 -0.1286933 0.01330711 -0.07667274 0.006323927 -0.16698888 -0.048885066
-0.07126595 0.123354375 -0.08884224 -0.00207196 0.009271576 -0.118413955 -0.1259711 0.13488592
0.19967346 -0.08209033 -0.045659233 -0.06612478 -0.13529108 0.050405167 0.029068898 -0.20240442
-0.17931518 -0.20541815 -0.057668276 0.10428916 0.1957432 -0.051079594 -0.22575355 0.14855048
0.14946178 -0.1986868 0.22328123 -0.19600652 -0.10075039 0.022523338 0.18406594 -0.010859603
-0.015063901 0.019197017 0.023605319 0.07106655 0.052305534 -0.0647657 -0.12649724 -0.09433274
0.05925921 -0.1820946 0.19255587 0.039424945 -0.08426807 -0.11260788 0.14574142 0.058997322
-0.2501623 -0.12743717 0.0027603377 0.026037658 -0.16419104 0.20869474 -0.2704106 0.14507334
0.10777135 -0.031089986 -0.034293167 0.05408395 -0.17481244 -0.14321996 -0.14885227 0.018592061
00000000: 653b 0a3d cb11 0e3e c7e0 013e f96d f83d
00000010: 0eaa 473e d039 87bd a36f 09bd 32d1 bd3d
00000020: 7778 043e f2e7 b53d 3cff 9b3d f6ef 763e
00000030: 922d 8ebd 2a10 e73d 7641 99bb f207 3cbe
00000040: 2c38 dcbd 8836 273e 4ee0 80bd d3bf 163e
00000050: be36 383e 9fc4 4c3e 8f98 3ebe 0c75 b9bd
00000060: c181 473d ea4f 70bb ab6f a33c 99f8 9abd
00000070: 51b1 813d 90f3 a53d 1071 e2bd b323 323e
00000080: 139c 74bd 32d2 7a3c 7e7a 423e fff3 a8be
00000090: 9281 fa3d 23c3 5abe 54fe aabd 6761 aa3d
000000a0: fa9c a8bd 8884 ab3d 1735 1a3e 593b a13d
000000b0: 1820 1a3e 10aa 85bd fb94 ed3d 813d 213e
000000c0: f6f6 333e 34b5 c7bd 7bc2 3bbe 7ec1 523e
000000d0: e558 003e 0954 9a3d 5d3d b8bd fdaa 03be
000000e0: 1695 ebbc 8dbb 4dbe 7375 2cbe b789 af3c
000000f0: 2a1c 0e3e 22fa 173d 4794 01bc 9a9f 383d
00000100: 2b2d 37bd 8fd2 32be fc1f 70bd 917f 7cbe
00000110: 4dde 643d ac84 ec3d 4177 5cbd 6d7e ff3d
00000120: acd4 633d cbe2 81bd 1647 23be aea1 53bc
00000130: 2a64 0bbe 77a0 9cbd 53c1 8bbd ab5b 5bbe
00000140: dd09 0cbe b8f5 cebd 433b 2e3e 7603 f43c
00000150: ae78 14be 58d7 08be d1c1 753d 56e6 bcbd
00000160: b97a 693d 4d4d 773d fb24 b53d 5a4b dc3d
00000170: b733 00bd d83a ec3d 83a5 e63d 15a1 2d3e
00000180: eabf 8f3d 2704 0f3e e195 8ebe e4f1 193e
00000190: e2fb 41bd 6680 213d ff9d 513d 307b 1d3e
000001a0: 0618 21be 86c6 3a3e d7cb da3d 880f ee3d
000001b0: 0b3c a93d b4a0 fb3d 70ec 3e3e d2f2 68bd
000001c0: 7966 0b3e 7109 ae3d 7b66 5dbd 1b8c 983d
000001d0: 429f 463e b73e 293e f6d3 623c 0648 4ebd
000001e0: 49c4 64bd 6e09 f33d b9a0 003c eae1 c0bd
000001f0: ade1 4b3d a7d4 853d 7ebf 63bd 8a86 8a3d
00000200: 642e b9bc 0802 5ebc 864f 60be c0c5 bdbd
00000210: aff8 533d 9a17 e4bd b552 f43d ce3a 0d3c
00000220: 04f0 243e 2db9 7e3b 13cf 21be 840e 2e3e
00000230: e85b 4abe e77d 183e 1c56 493e 1135 5b3e
00000240: 1c3a 593d 3521 3fbe d138 973c 0008 e5bd
00000250: 8d5d 9c3d 1cfa 113d 9c90 c73b 4131 b03d
00000260: 8363 57be 9504 efbc b6d6 533d fea6 6fbe
00000270: 1701 81bd 6766 263d e7c6 08bc 9350 13be
00000280: d5cb 2bbe 9106 20be e462 0f3e ab36 103e
00000290: f748 abbd 3fc4 94bd dc1a c8bd 4cb9 e63d
000002a0: 7843 103d f305 03be 8151 963d 428c 163e
000002b0: 5c14 26be 6a5a 293e 4784 57be d859 2ebe
000002c0: 950f c6bd 2340 cbbd fa3c c1bd 7e75 dd3d
000002d0: 401b 123e 55aa a43d fc06 12be ae73 033e
000002e0: 46cb b2bd 1ada 8bbd 2dc8 03be 1106 5a3c
000002f0: 9906 9dbd f238 cf3b 22ff 2abe b53b 48bd
00000300: e2f3 91bd 38a1 fc3d ecf2 b5bd b8c9 07bb
00000310: cfe7 173c 0483 f2bd 91fe 00be 891f 0a3e
00000320: 3377 4c3e fa1e a8bd 2d05 3bbd 6e6c 87bd
00000330: bf89 0abe a675 4e3d e621 ee3c 1b43 4fbe
00000340: 669e 37be 2359 52be 9235 6cbd 8e95 d53d
00000350: e870 483e d638 51bd f02b 67be 9e1d 183e
00000360: 820c 193e 8d74 4bbe d6a3 643e efb5 48be
00000370: 3856 cebd dd82 b83c c87b 3c3e 7aec 31bc
00000380: 95ce 76bc 1043 9d3c f15f c13c 578b 913d
00000390: 543e 563d e1a3 84bd 7e88 01be 8631 c1bd
000003a0: c9b9 723d 0277 3abe 5e2d 453e 0d7c 213d
000003b0: bd94 acbd f69e e6bd 3d3d 153e 2da7 713d
000003c0: 4615 80be e47e 02be c8e6 343b ed4c d53c
000003d0: b221 28be 13b4 553e 4273 8abe 1b8e 143e
000003e0: 3ab7 dc3d 6db0 febc fe76 0cbd 2287 5d3d
000003f0: 0802 33be 41a8 12be bb6c 18be 614e 983c

arith.constant29 f4 [64]
-0.027927388 -0.010673283 0.06396128 4.8739574e-05 -0.088738725 0.04388465 -0.012926781 -0.01189965
-0.035682444 0.001723156 -0.008124785 -0.054883704 -0.035259508 -0.01126332 0.076638766 -0.107482046
0.0012886047 0.065897696 -0.014006539 -0.027755247 0.013038607 0.051731512 0.06805821 -0.0007089501
-0.09735841 -0.0005469267 -0.030896846 -0.019300876 -0.0028968072 0.009465608 -0.0008670432 -0.008721965
0.010561707 0.013844667 -0.04014693 0.05114692 -0.011989611 0.0070069954 0.024582192 -0.028974256
0.02905917 -0.015521577 0.023254497 -0.048542447 0.061648257 -0.0977797 -0.007581386 0.08352562
-0.01566353 0.007483499 -0.10334712 -0.037044413 0.031954832 -0.07152627 0.015072912 -0.007051743
0.005231384 -0.028645921 0.07205734 0.0650301 0.013015841 0.017845344 -0.008889642 -0.0071462854
00000000: fac7 e4bc fede 2ebc 22fe 823d b86d 4c38
00000010: a6bc b5bd 64c0 333d d9ca 53bc c0f6 42bc
00000020: c127 12bd 85db e13a d11d 05bc bccd 60bd
00000030: 466c 10bd ca89 38bc c9f4 9c3d 8c1f dcbd
00000040: 66e6 a83a 5ff5 863d af7b 65bc f95e e3bc
00000050: e29f 553c 6ce4 533d 1a62 8b3d d6d8 39ba
00000060: d963 c7bd a15f 0fba 621b fdbc df1c 9ebc
00000070: 5cd8 3dbb a315 1b3c 494a 63ba 93e6 0ebc
00000080: 030b 2d3c bed4 623c 1b71 24bd 6f7f 513d
00000090: 1370 44bc f09a e53b 9860 c93c 6b5b edbc
000000a0: 7f0d ee3c 364e 7ebc 3780 be3c 72d4 46bd
000000b0: e282 7c3d b940 c8bd 466d f8bb 7b0f ab3d
000000c0: ce50 80bc 2438 f53b a8a7 d3bd e2bb 17bd
000000d0: 12e3 023d 5d7c 92bd 60f4 763c 4f12 e7bb
000000e0: 086c ab3b daaa eabc cc92 933d 802e 853d
000000f0: 6540 553c 6630 923c dca5 11bc 632b eabb

arith.constant30 f4 [128]
-0.08146031 -0.015502128 0.013336193 -0.031561047 -0.004397405 0.015002819 0.007596237 -0.03849639
-0.0605925 -0.021070823 -0.003460362 0.025491182 0.00039355538 -0.034599587 0.0091831125 -0.09667294
-0.06697456 -0.047778558 -0.02886857 -0.0011995685 -0.06060972 -0.011571954 -0.0071034622 0.012316357
0.015300152 0.023514276 -0.0193424 -0.06545379 0.03794938 -0.014729315 0.008772364 -0.02697371
0.041097384 0.025991699 0.04194582 0.049324345 -0.031580403 -0.017873527 0.015203187 -0.033542465
-0.02717935 -0.09676263 0.024654401 -0.017622378 -0.027813744 -0.07962073 -0.07238511 -0.06318703
-0.21849573 -0.12335194 0.03159119 0.07204133 0.054823544 0.012863843 0.0070694494 0.019301431
-0.028576331 -0.100282036 0.032452796 -0.0020011703 0.0107658105 -0.006015908 0.012427043 0.015138031
-0.1474585 -0.03182706 0.027511735 -0.01648174 -0.007880159 -0.035496045 0.092680745 -0.14292273
0.07022334 0.055817936 -0.018844107 -0.0003603626 0.043551225 -0.042920902 -0.12282691 -0.019775819
-0.052049205 -0.05327838 0.059465203 -0.07911029 -0.050459046 -0.017779216 0.0131814685 0.044556584
0.088126235 -0.051831875 0.016594622 -0.067708485 -0.039268974 0.12836714 -0.05132182 -0.03499063
0.009274127 0.03464571 0.042982806 -0.07959331 -0.04984998 -0.09961326 -0.007469716 0.018650232
0.026664065 -0.0066410154 0.0966894 0.027812961 -0.03216249 -0.017731823 -0.12810566 -0.118645445
0.007496439 -0.054988462 -0.014655606 -0.17484635 -0.08724442 -0.027239058 -0.06005093 -0.0042132195
-0.059003416 -0.031246817 0.06129386 0.055007186 -0.057031553 0.033153486 -0.04397777 -0.019486532
00000000: aad4 a6bd a3fc 7dbc 0c80 5a3c 2846 01bd
00000010: 1b18 90bb 62ce 753c dbe9 f83b 64ae 1dbd
00000020: d72f 78bd b89c acbc 3ec7 62bb e2d2 d03c
00000030: 1c56 ce39 4cb8 0dbd c474 163c 76fc c5bd
00000040: f529 89bd 73b3 43bd c87d ecbc d73a 9dba
00000050: e641 78bd 4b98 3dbc 29c4 e8bb 8cca 493c
00000060: 7dad 7a3c 03a1 c03c f473 9ebc a30c 86bd
00000070: cf70 1b3d 3a53 71bc f6b9 0f3c f8f7 dcbc
00000080: bb55 283d 8bec d43c 61cf 2b3d 5308 4a3d
00000090: 745a 01bd 816b 92bc ca16 793c d363 09bd
000000a0: 3aa7 debc 7c2b c6bd 07f8 c93c ce5c 90bc
000000b0: a6d9 e3bc 3110 a3bd a53e 94bd 3468 81bd
000000c0: 58bd 5fbe f19f fcbd c365 013d 688a 933d
000000d0: a78e 603d dec2 523c d7a6 e73b 091e 9e3c
000000e0: e918 eabc ab60 cdbd 39ed 043d 1126 03bb
000000f0: 1563 303c 1821 c5bb cc9a 4b3c 8105 783c
00000100: 5cff 16be 175d 02bd 4a60 e13c b704 87bc
00000110: c81b 01bc 4d64 11bd 67cf bd3d 565a 12be
00000120: 41d1 8f3d 59a1 643d f55e 9abc 0def bcb9
00000130: c562 323d d4cd 2fbd ad8c fbbd e600 a2bc
00000140: 8c31 55bd 6e3a 5abd c991 733d 9304 a2bd
00000150: 25ae 4ebd b8a5 91bc 16f7 573c f780 363d
00000160: 877b b43d a94d 54bd 72f1 873c bfaa 8abd
00000170: 81d8 20bd ad72 033e d436 52bd 5652 0fbd
00000180: 82f2 173c a9e8 0d3d bd0e 303d d101 a3bd
00000190: 7e2f 4cbd 0902 ccbd 85c4 f4bb 5fc8 983c
000001a0: 996e da3c e09c d9bb 1805 c63d 02d8 e33c
000001b0: d1bc 03bd 5442 91bc 212e 03be 62fc f2bd
000001c0: b0a4 f53b 953b 61bd 111e 70bc ec0a 33be
000001d0: 34ad b2bd 7224 dfbc f7f7 75bd 0c0f 8abb
000001e0: 91ad 71bd 53f9 ffbc 450f 7b3d 374f 613d
000001f0: eb99 69bd f3cb 073d 0922 34bd 38a2 9fbc
